1_5_CNN_Layers/saved_models/fashion_net_simple.pt (torch_old, 28781 bytes, 6 tensors)

conv1.weight f4 [10, 1, 3, 3]
000000 51 14 e9 be dd da 8d be 22 21 d2 be 75 2c a2 be
       -0.45523313 -0.27706042 -0.41040903 -0.31674543
000010 7d 73 8b be 08 4a cf 3a 38 22 9d be 23 97 ad be
       -0.27236548 0.001581491 -0.3069017 -0.3390437
000020 83 f1 ec be a5 5b 94 3e e0 3b be be 1e 4a a9 3d
       -0.4627801 0.2897617 -0.37155056 0.0826609
000030 2f 10 9c bb 37 03 12 bf 0c dc 83 bd 50 86 cd 3e
       -0.0047626714 -0.57036155 -0.06438455 0.40141535
000040 69 cb c0 be 70 0b 2b be 25 e5 d4 be ac e4 14 be
       -0.3765519 -0.16703582 -0.41581073 -0.14540356
000050 e6 be 14 3f 6e 9f 08 bf bf 01 2a bd ac 96 e6 3d
       0.5810379 -0.5336827 -0.04150557 0.11259207
000060 00 33 cf be 0d a5 d1 be 0d 2a ef 3e ae a8 24 3e
       -0.40468597 -0.40946236 0.4671177 0.16079971
000070 4d f4 7a 3e 1a e2 36 be 5e 46 64 be 0b 39 be 3e
       0.24507256 -0.17859688 -0.22292468 0.37152895
000080 c1 c7 e8 bb f9 8d 1b 3e 26 20 c4 3e ea 20 6d be
       -0.0071038906 0.15190877 0.38305777 -0.23157087
000090 58 2c d3 be ff 87 8d be 24 c0 bd be 38 2f b5 be
       -0.4124477 -0.2764282 -0.37060654 -0.35387588
0000a0 a8 63 2d bf af a7 63 be 1b 6c 13 3e 14 50 16 bf
       -0.6773019 -0.22231935 0.14396708 -0.5871594
0000b0 1a d6 4b be 82 56 3e 3f 7c 5e 3d 3f b9 c5 49 3f
       -0.19905892 0.7435075 0.73972297 0.78817326
0000c0 62 15 ff 3e 22 9c 79 3f 0b 2c 19 3f 1c e9 13 3f
       0.49821 0.97503865 0.5983283 0.5777757
0000d0 26 87 9e 3e 90 8d b8 3d f9 f5 8c be 93 2d bd be
       0.30962485 0.09011376 -0.27531412 -0.36948833
0000e0 c9 4f 8f 3e 3c 39 a6 be 4a e3 49 be 5f 4a ae 3e
       0.2799056 -0.3246554 -0.1971561 0.34041116
0000f0 37 dc 0b 3e d1 92 38 3e b9 f3 62 3e 28 cd 68 be
       0.13658224 0.18024756 0.22163285 -0.22734511
000100 f8 9a 80 be 0a 58 c3 3e 10 4c b6 3d 22 51 e2 3d
       -0.25118232 0.38153106 0.089012265 0.11050631
000110 a0 68 28 3e ff ff 82 be 10 61 ee bd 7e a1 d1 bc
       0.16446161 -0.25585935 -0.11639607 -0.0255897
000120 f1 45 8a be bd 54 e7 3e f6 b7 01 3f ea 2d 0b 3d
       -0.27006486 0.45181838 0.5067133 0.033979334
000130 87 92 91 bb a4 86 69 3e 35 14 cd 3e 49 a1 f9 bd
       -0.0044425162 0.22805268 0.4005448 -0.12188966
000140 41 68 a8 3e 57 64 6c 3e eb b6 38 be f9 46 16 3e
       0.3289204 0.23085152 -0.18038528 0.14675511
000150 34 c4 35 3e 01 4a 99 bd a6 58 3d 3e 38 2b 30 be
       0.17750627 -0.07484818 0.18490848 -0.17203987
000160 4b d2 aa 3e 78 b9 77 be
       0.33363566 -0.24191844

conv1.bias f4 [10]
000000 6c 18 28 3f 3c 79 24 3f 36 de 32 3f ac f1 db bd
       0.65662265 0.6424749 0.69870317 -0.107394546
000010 50 11 3c 3f dd c1 7a 3d 6a 0c e0 3b 30 ab c9 bd
       0.73463917 0.06122004 0.0068374174 -0.098471045
000020 60 39 84 37 b1 11 79 be
       1.5762344e-05 -0.24323155

conv2.weight f4 [20, 10, 3, 3]
000000 66 cd f0 3d d7 d8 bc bc b0 01 db 3d 2c 5f 1c 3c
       0.11757927 -0.023052616 0.10693681 0.009544175
000010 09 44 b5 bc f5 56 c0 3d 64 a9 f1 bd e2 50 50 bc
       -0.022127168 0.09391586 -0.11799887 -0.012714596
000020 e9 7a 8c 3b 3c 65 ce bd 0d 74 bd 3d 15 ba 68 bd
       0.004287113 -0.10077903 0.092506506 -0.056818087
000030 dc d0 03 bc b5 64 21 3d ba 7c 97 bd 93 26 de bd
       -0.008045401 0.039402682 -0.073968366 -0.10847201
000040 35 f7 1a bd 19 69 03 be ae d3 0a 3e 47 f0 ca bd
       -0.03783341 -0.1283306 0.13557312 -0.099091105
000050 6c a7 76 3d d8 dd c2 bd 7e f5 ef bd e1 b0 db bd
       0.06021826 -0.095149696 -0.11716746 -0.10727096
000060 2c cb 69 3d ed 99 e5 bc 4a 89 99 3c 93 e8 32 3d
       0.057078525 -0.0280275 0.018742222 0.04367883
000070 13 bc 5e 3d 2f 6a 31 bd ea a0 34 bd 0f 67 c0 bd
       0.05437858 -0.043314155 -0.044098772 -0.09394657
000080 4b 90 2a bd 14 48 80 bd 88 50 d7 bd 2a 58 1e bc
       -0.041641515 -0.06263748 -0.10513407 -0.009664575
000090 b9 e5 04 3e 70 ba af 3d ac 3f 24 bd 12 3b ac bd
       0.12978257 0.08580482 -0.040099785 -0.08409704
0000a0 18 5f 52 3c 84 f0 f8 3c eb b5 ee bd c7 ec f7 3c
       0.012840055 0.030388124 -0.11655792 0.030264271
0000b0 72 f2 25 3d 48 88 7f bc 2e 45 a2 3d e9 54 fc 3d
       0.040514417 -0.015596457 0.07923351 0.12320883
0000c0 b0 1b 36 3e d1 83 ea bc fb 36 86 bd c5 85 97 3d
       0.17784 -0.028627308 -0.065534554 0.073985614
0000d0 ae 6c de 3d 6e 00 4a bc 82 e5 ec 3d 97 c2 cd 3c
       0.10860573 -0.012329204 0.11567213 0.025117202
0000e0 bb 71 27 bd 07 31 86 bd 2d 5e 76 3d 46 6a b3 bd
       -0.040879946 -0.0655232 0.060148407 -0.087605044
0000f0 28 9b b3 3c e3 8d 25 bd 1b 96 9d bd 79 98 c4 bd
       0.02192457 -0.040418517 -0.07694646 -0.09599394
000100 62 2a 0d 3d b4 50 d4 3d 7b f9 30 bd 33 0c 44 bd
       0.034464248 0.103669554 -0.043206673 -0.047863197
000110 27 b9 9d bd 3c 40 99 3d f3 43 e1 3c 09 32 a0 3d
       -0.07701331 0.07482955 0.027498221 0.078220434
000120 e4 37 95 3d 4d e9 43 3d 27 01 9b 3d 36 ad 44 bd
       0.07286051 0.047829915 0.07568579 -0.04801675
000130 9c df cd bd 66 1e 7e bd d3 21 16 3d e3 c1 7c bd
       -0.10052416 -0.06204071 0.03665335 -0.061708342
000140 11 24 a6 3c 4e d8 45 3d c9 1c 2e 3c 93 71 b0 3c
       0.02028087 0.048301987 0.01062698 0.021538531
000150 ff 9f b5 bd ae 3e d0 3d c5 ca 62 3d 17 d9 81 bd
       -0.088684075 0.10168205 0.055369157 -0.06340235
000160 7a 33 c2 bd 29 c0 88 3c e3 0e ce bc f0 5b dc 3d
       -0.094824746 0.016693192 -0.025153583 0.10759723
000170 7d 19 34 3e 00 1f 11 be e8 f1 01 3d 04 66 e2 3d
       0.17587848 -0.14171982 0.03172484 0.11054614
000180 87 75 6e bd 29 51 ce bd 84 a7 d7 3d f4 bc 18 3d
       -0.05821755 -0.10074074 0.10529998 0.037289575
000190 e9 ad 54 bc ac ca dc 3d a6 e0 82 bd 77 76 dc 3d
       -0.012980917 0.10780844 -0.063905045 0.10764783
0001a0 a9 4f 59 bd d4 cc 3f bd c3 e5 3b 3d 96 ca e3 3d
       -0.053054485 -0.0468262 0.045873415 0.111226246
0001b0 2f 00 7c bd 7a 97 53 bd 98 5b 8e 3d 03 03 ea bd
       -0.061523613 -0.05165813 0.06951064 -0.11426356
0001c0 16 1f ad bd 39 b0 93 bc 35 3b 50 3c 74 ce bd bd
       -0.08453195 -0.018028365 0.012709429 -0.092678934
0001d0 a6 3d c9 3d 55 4e 83 3d b5 90 a1 bc cf 16 cb bd
       0.09826212 0.06411425 -0.019722322 -0.0991646
0001e0 77 bd d4 3d d0 69 c4 bd 98 9c c6 3d 69 0f 0b bd
       0.103877 -0.09590495 0.09697837 -0.033950243
0001f0 d3 d2 05 bd b7 75 bc bd fd cb a6 bc 3a 38 1d 3e
       -0.03267176 -0.0920214 -0.020360941 0.1535348
000200 f7 4d 35 3e c6 41 38 3d 00 32 05 bd c6 28 d5 bc
       0.17705522 0.0449846 -0.032518387 -0.026020419
000210 08 8b 06 be 2c 70 bc bd 79 14 8b 3c b4 0e 3d 3e
       -0.13138974 -0.092010826 0.016977536 0.1846264
000220 11 f3 46 be 24 95 bb be a0 93 5f 3e 18 7a 38 3d
       -0.1942866 -0.36637223 0.21833658 0.045038313
000230 09 b1 d8 3c 73 f2 03 3e 26 6a 8d 3d da f1 95 bd
       0.026451604 0.12885456 0.06905012 -0.0732152
000240 db ab ea bd 71 a9 d9 3c 31 e0 be 3d d8 3f 98 3d
       -0.1145856 0.026570054 0.09320105 0.07434052
000250 fa 04 84 3d 8f bf cf 3d f3 3f 54 bd f6 41 c4 3d
       0.06446262 0.10143959 -0.0518188 0.095828936
000260 a8 17 a7 bd dc a8 37 3d 68 c8 42 bd b6 be d4 bb
       -0.08158809 0.04483877 -0.047554404 -0.006492461
000270 c1 91 d1 bd 97 5d 96 bd 04 d4 21 bd e2 6a 9f 3d
       -0.102328785 -0.073420696 -0.039508834 0.07784058
000280 aa d7 d0 3d 1a cb 2c 3d 71 3a 86 3c 5f 74 6c bd
       0.10197385 0.04218588 0.016385289 -0.057728168
000290 67 3b 5c bd 56 24 10 3e 77 54 b6 bc 72 20 92 bd
       -0.053767588 0.14076361 -0.022257073 -0.07135095
0002a0 ca 46 63 ba 3d 7a 06 bc f8 0f 0f 3d fa fb 29 3d
       -0.0008669911 -0.008207855 0.03492734 0.04150007
0002b0 49 e4 be 3d 5b 3a 84 bc 36 dd a1 bd e3 23 bc bd
       0.09320886 -0.016141107 -0.07903521 -0.09186532
0002c0 52 d4 89 3d 8d ca 7b 3c 3a 3b 12 bc 8f 6f d0 3c
       0.0672995 0.015368116 -0.0089252535 0.02544382
0002d0 69 cd 99 3d 22 c4 95 3d c9 a9 8b 3d 03 df 2c bc
       0.07509882 0.073128 0.06819493 -0.010551217
0002e0 3c f6 a9 bd 1e 43 64 3d 6c c9 21 ba 82 8f b2 bc
       -0.082989186 0.05572807 -0.0006171677 -0.021796945
0002f0 a4 e5 bf 3d fd 29 3f 3d 1e 1b 5d 3d 69 d9 0e 3e
       0.09369972 0.046670903 0.05398094 0.13950123
000300 16 eb 3d bd f7 ac 29 bd d7 ce 89 3d fb cf b9 bd
       -0.046366774 -0.041424718 0.06728905 -0.09072872
000310 08 fb b5 3d 78 c1 8c bd d5 e0 91 bd 2d 40 94 3b
       0.08885771 -0.06872839 -0.071229614 0.004524252
000320 ae 7f e1 3d 38 d0 a4 3d 6b f3 ae bd 39 22 67 bd
       0.11010681 0.08047527 -0.08542522 -0.05642912
000330 5d b2 9c bd c5 c9 69 bd d7 f1 49 3d ad 34 45 bd
       -0.076512076 -0.057077188 0.049302902 -0.04814594
000340 73 b5 a0 bd e5 1f fa 3a c4 5a fb 3c 15 ad 5d 3c
       -0.07847109 0.0019082992 0.030682929 0.0135300355
000350 3a 7c c0 bd 4e 34 a8 3d 9c ff af bd 5c 7f 28 3d
       -0.09398694 0.08213101 -0.085936755 0.041137084
000360 ab 43 c1 bd 6c 5d 29 bd d8 44 3d 3d b6 c3 c6 bc
       -0.09436735 -0.04134886 0.046208233 -0.024263244
000370 61 f4 02 3e d1 56 43 bd 88 bf 97 bd 0e d7 c2 3c
       0.12788536 -0.047690216 -0.074095786 0.023784187
000380 8f 60 35 bd 42 64 9f 3d 87 c8 ac 3d de 8a df bd
       -0.04428154 0.077827945 0.08436685 -0.10915159
000390 3b 80 fa 3c de f1 c8 3d 95 75 e6 bd ed 2b ab 3d
       0.030578723 0.098117575 -0.11252896 0.083579876
0003a0 ab 05 d2 b9 87 1f ea bd 87 46 d2 bd 20 99 bb bb
       -0.00040058544 -0.114317946 -0.10267358 -0.005725041
0003b0 93 cc a5 bd f3 fe 73 bd 82 5c 95 3d 8a e5 b3 3b
       -0.0809566 -0.05956931 0.07293035 0.0054900097
0003c0 32 4c a3 bc 4b b4 39 3d a8 24 8e 3d b3 ae 08 3d
       -0.019933794 0.045337956 0.069405854 0.03336973
0003d0 09 fd 9f bd 68 a3 32 3d 07 3b b3 bd b2 32 a6 ba
       -0.078119345 0.043612868 -0.08751493 -0.0012679903
0003e0 d1 0a a1 3d 7d d8 e7 bc 9e b4 68 bd f5 85 a3 3d
       0.07863391 -0.028301472 -0.056812875 0.07984535
0003f0 41 59 aa bb 02 b8 89 3c 78 51 de bd 5e 8c d2 3d
       -0.005198628 0.016811375 -0.10855383 0.10280679

conv2.bias f4 [20]
000000 08 ce 31 3e 24 e0 e1 3d d9 07 c3 3c 95 13 6a 3d
       0.17363751 0.110290796 0.023807453 0.05714758
000010 4b 08 2b 3e 5d b0 56 bc 7f ab 69 3e 30 80 4d 3e
       0.16702382 -0.013103572 0.22819327 0.20068431
000020 93 b4 da 3c 63 48 59 3e 0c 1a 17 3b 70 72 de bd
       0.026697433 0.2121902 0.0023056297 -0.10861671
000030 ad 8f ae 3d c1 3c 23 3d 8e d6 a6 3d 76 94 ee 3d
       0.08523498 0.03985286 0.08146392 0.116494104
000040 36 b6 8d bd 9b 8b 60 3b e2 92 e7 3d 36 0d 19 bd
       -0.069195196 0.00342629 0.113073125 -0.037366115

fc1.weight f4 [10, 500]
000000 09 0d af 3d 94 0d 9b bc 79 2b 88 bc 27 14 c7 3c
       0.08547408 -0.018927373 -0.016622292 0.024301602
000010 b0 1a 5d 3d 6e d4 15 3d 30 e0 5a 3d ff 3a 70 3d
       0.05398053 0.03657954 0.053436458 0.058650013
000020 38 63 67 3c 09 c0 ae 3c 49 46 8d bc 65 1f 7c 3b
       0.014122777 0.021331804 -0.017245429 0.003847086
000030 57 83 ee 3c 6a 81 b3 bc 90 6d cb 3c c2 b6 d7 3b
       0.029115362 -0.021912295 0.024832517 0.0065830657
000040 37 95 a5 3b 52 6d 99 bb 27 9a c4 bb f8 42 7c bc
       0.005053188 -0.0046822214 -0.0059998217 -0.015396826
000050 76 ae 32 bc 83 81 c7 3c 69 93 8a bc cf 22 e7 bb
       -0.010905853 0.024353748 -0.016915994 -0.00705371
000060 58 b3 22 3d 25 70 69 3b b7 39 a0 bc 67 03 b0 3c
       0.039721817 0.0035619822 -0.01955877 0.021485997
000070 84 a7 32 be ca 77 15 bd 38 e6 32 3c b7 d2 85 3a
       -0.17446715 -0.036491193 0.010919146 0.0010209893
000080 08 e6 6a 3d c3 3a 04 3d 67 7e d0 bd 9d 10 44 bc
       0.05734828 0.032282602 -0.10180359 -0.011966852
000090 21 f9 f2 3c ad cb bb bb 86 4b ea 3b 25 3d 18 3d
       0.02965981 -0.005731067 0.0071501164 0.037167687
0000a0 9f 6e 23 3d 29 2f 91 bc 01 45 5b 3d 50 e8 0c 3d
       0.03990042 -0.017722683 0.053532604 0.034401238
0000b0 3d 46 cb 3c a5 63 2f bb fa 86 82 bc 70 73 46 3d
       0.024813766 -0.0026762274 -0.015933502 0.048449934
0000c0 92 03 61 bc b9 0f 3c 3d 5c b6 25 3d b9 77 5a bc
       -0.013733761 0.04591343 0.040457115 -0.013334208
0000d0 7b 9a 32 bd 8a 6a 3f bd 75 a6 9f bd 2d 58 2e bc
       -0.043604355 -0.046732463 -0.07795421 -0.01064114
0000e0 b8 b9 b4 3c eb ab 40 3c 18 ca ca bc 60 78 ef bc
       0.022061214 0.011759738 -0.024754569 -0.029232204
0000f0 c8 e8 33 3c fb 48 82 bc b8 2b cf 3c be 7f 86 ba
       0.010980792 -0.01590394 0.025289401 -0.0010261459
000100 07 4d 6f bc ec 2d e7 3c 9b d7 2a 39 6e 0f c3 bc
       -0.014605767 0.02822014 0.00016292783 -0.023811068
000110 46 bf ad 3c 93 ca 56 3d 39 f3 89 3c 46 c3 d4 3c
       0.02120937 0.052439284 0.01683961 0.02597202
000120 02 78 49 38 d0 47 ba bc 54 ec b5 3c ab 0a 6f 3d
       4.80339e-05 -0.022739321 0.022207417 0.058359783
000130 4b a6 a4 bc fb c6 17 bc 07 bd 0a 3d 03 2d 56 bd
       -0.020098826 -0.009263749 0.033871677 -0.05228902
000140 f4 20 de bc 9d 24 a8 3b f9 53 9f 3c d3 40 e1 3c
       -0.027115323 0.005131318 0.019449221 0.02749673
000150 4d ca 37 bd 97 a6 ac 3a 40 6f f2 3c 24 be 29 3d
       -0.044870663 0.0013172206 0.029594064 0.041441098
000160 55 74 42 3c 39 b8 6f 3d 88 c8 1b 3c 7f 46 5b 3d
       0.011868556 0.058525298 0.00950826 0.053534027
000170 08 a5 5a 3d 3d bf 98 3b 0a 2a 3f 3d bc 59 f1 3b
       0.053380042 0.0046614693 0.04667095 0.0073654335
000180 15 d0 3b 3d 3b cd 2d bd 7e a7 b8 3c 92 7f e0 ba
       0.04585274 -0.04243205 0.022540804 -0.0017127863
000190 22 3f 13 bd 86 39 c2 bc 6a 33 92 3d 65 58 73 3d
       -0.03594888 -0.02370907 0.07138713 0.05941047
0001a0 c0 69 86 bd f4 a0 f4 bc 69 b9 cb bd 74 09 26 3d
       -0.06563139 -0.029861905 -0.099474736 0.04053636
0001b0 da 12 1a bb 2b 85 12 3b 5f c7 ae 3d 57 b9 42 3c
       -0.0023509772 0.0022357206 0.08534121 0.011885009
0001c0 72 3d fd bb ec 97 be 3c 87 4d 7f 3d 6b 16 cb 3d
       -0.007728272 0.023265801 0.062329795 0.09916385
0001d0 66 ba ea 3b 3b 08 a7 bc 20 2e a0 3c 61 d4 9f 3d
       0.0071633337 -0.020389667 0.019553244 0.0780418
0001e0 87 62 22 3e 0b f9 3c bc 28 39 8d bd cc a9 2f bd
       0.15857898 -0.011533986 -0.06895667 -0.04288654
0001f0 e9 26 92 3d d4 f9 ff bd 86 5c b2 3d de ff 16 bd
       0.07136328 -0.12498823 0.08709054 -0.036865108
000200 f9 84 93 3d 2b 98 2e bd cb ad ac 3c 77 70 a0 bc
       0.07203097 -0.042625587 0.021078965 -0.019584877
000210 a3 8d 77 3d c0 e7 ac 3d 7f 6b 40 3d 9f 2c 80 bd
       0.06043781 0.0844264 0.046977516 -0.06258511
000220 77 c1 98 bd 87 d9 9b bc 2f 12 d0 3d 07 a9 6a bd
       -0.074587755 -0.019024624 0.10159718 -0.057290103
000230 bd d6 2d bd 05 1a 36 bd fd 0b 9c 3c 70 e5 5f 3b
       -0.04244112 -0.044458408 0.019048685 0.0034163855
000240 63 34 46 bd 8c 86 8e bd 81 4c f8 bd fa 7b 61 bd
       -0.048389804 -0.069592565 -0.12123967 -0.055049874
000250 83 18 8c bc 12 4d a0 bc 1f f8 ca 3c 73 6d cc bc
       -0.017101532 -0.019568 0.024776516 -0.024954533
000260 ff 67 97 bd 47 42 16 bd ff a0 c0 bd 4e a7 9c bd
       -0.073928826 -0.0366843 -0.094057076 -0.07649098
000270 67 cb 24 bd 9a c5 83 3d 74 43 31 3d a9 90 bc 3d
       -0.040233042 0.06434174 0.04327722 0.09207279
000280 f9 d2 f9 3d a3 07 9e 3d f3 fd c8 bb 6e 2a 7f 3d
       0.12198443 0.077163 -0.0061337887 0.062296323
000290 ba b8 a6 3d 6b 01 63 3d 4e 4b b0 bc 88 c0 be bc
       0.081407025 0.055421274 -0.021520283 -0.023285165
0002a0 70 63 c2 39 d4 5d dc 3c 21 26 02 3e d7 a8 84 bc
       0.0003707665 0.02690021 0.12709858 -0.01619379
0002b0 2e d5 5b bd f0 98 46 bd 20 21 f5 bc 28 1d 34 3d
       -0.0536701 -0.048485696 -0.029923022 0.043973118
0002c0 2f ad 1e bb 75 ba 1e 3d 2e 4e 86 bd e6 d2 39 be
       -0.0024212112 0.038752038 -0.0655788 -0.18146858
0002d0 c6 d6 f4 bc 39 33 58 bd 91 86 72 3c f3 4e 94 3c
       -0.029887568 -0.052783225 0.014802591 0.018104052
0002e0 b1 6d d1 bd 15 54 f4 3d 21 53 7b bc 7b ea 40 bc
       -0.10226 0.119301 -0.015339644 -0.0117746545
0002f0 e2 84 f1 3c 91 bd 18 3d d0 cc 7e 3d 5a 88 c4 bb
       0.029482309 0.03729016 0.062207043 -0.0059976997
000300 6d 58 d8 3c ce e7 7b bc a5 a6 70 3d 23 cc 4f 3d
       0.026409352 -0.015375091 0.058752675 0.05073179
000310 85 04 8f bc 42 a3 80 bc 40 83 cb bd 9b 41 b6 3d
       -0.01745821 -0.015702847 -0.09937143 0.08899232
000320 cb d3 1b 3d 22 f6 e6 3c a3 5e 3e 3c 18 da 04 be
       0.03804378 0.028193537 0.011619243 -0.12973821
000330 b6 37 5f bd 5a ef 53 3d c6 3a 8a 3d 5b f2 66 3d
       -0.05449649 0.051741935 0.067494914 0.056383472
000340 ea 2f 6e bc 5e 67 51 bb cb 09 d2 3c 28 19 ef bc
       -0.014537791 -0.003195248 0.025639435 -0.0291868
000350 74 7c 25 3d f4 0e cb 3c 54 37 42 3c 86 90 c0 3c
       0.04040189 0.024787404 0.011854012 0.023506414
000360 e0 15 46 bc 7f ee 9a 3c 2a 0e 79 3d 11 8f 28 bd
       -0.012090176 0.018912552 0.060804524 -0.041152064
000370 ae bc bf bc 4d eb af 3c de aa ac bc 13 d5 bc bc
       -0.0234054 0.021474505 -0.02107757 -0.02305082
000380 c0 1c 1f 3c a1 0d ae bc 05 97 c2 3d 93 7a a6 3d
       0.009711444 -0.021246733 0.09501461 0.08128848
000390 27 5e ec 3d 4e c0 68 be 39 98 41 3d a1 be 6f bd
       0.11541396 -0.22729608 0.04726431 -0.058531407
0003a0 a3 0f 92 3b 15 f7 81 3d 46 3e 05 be 1d f1 9b 3d
       0.0044574304 0.06345955 -0.13012037 0.07614348
0003b0 13 dc 0e bd af 9f 67 3d 96 34 44 3d bf df 41 3d
       -0.034877848 0.05654877 0.047901712 0.04733252
0003c0 af 42 d0 3c de c5 b0 bc 9d 41 dd bc 11 2c c7 bc
       0.025422422 -0.021578725 -0.027008826 -0.024313005
0003d0 41 63 f4 3d 13 d7 ed 3d a9 17 3b bd 85 83 bb bc
       0.11932994 0.11613288 -0.04567686 -0.022889862
0003e0 65 17 09 be db ba fa 3d f5 6b d3 3d 20 07 ce bd
       -0.1338783 0.12242671 0.103233255 -0.10059953
0003f0 84 67 13 3d 35 82 1b bd 5f cd f7 3b be e0 ef 3d
       0.035987392 -0.037965972 0.007562324 0.11712788

fc1.bias f4 [10]
000000 6f 59 01 3d 7b 3f dd bb 6b 07 b5 bc 3b b5 15 bd
       0.03157943 -0.006751952 -0.022098264 -0.036549788
000010 d4 98 f1 bb 4e cb bd bb d5 d0 de bc dc 84 e3 3b
       -0.007372955 -0.005792058 -0.027199188 0.0069433283
000020 94 60 89 3d 9d 14 7f 3c
       0.06707874 0.015568879
