1_5_CNN_Layers/saved_models/fashion_net_ex.pt (torch_old, 111237 bytes, 8 tensors)

conv1.weight f4 [10, 1, 3, 3]
0	0xbef0b537	-0.47013256
1	0xbf678e1c	-0.90451217
2	0xbf0e1bdb	-0.55511254
3	0xbd399a38	-0.04531309
4	0x3efd28ef	0.49445292
5	0x3f51cc36	0.81952226
6	0x3eefd0e7	0.46839067
7	0x3e40468e	0.18776914
8	0xbd9c3704	-0.07627681
9	0xbf51a9f5	-0.8189996
10	0x3e322a38	0.17398918
11	0x3f1f80bf	0.62305826
12	0xbf8ce9c5	-1.1008841
13	0x3f19b3ae	0.60039794
14	0x3e654a81	0.22391702
15	0xbef41815	-0.47674623
16	0x3e4e7141	0.2016039
17	0x3eb15bcc	0.34640348
18	0x3f31ecd6	0.6950201
19	0x3f3df6a3	0.7420446
20	0x3e964c89	0.29355267
21	0xbf341586	-0.7034534
22	0x3efb9b5f	0.49141976
23	0x3e7c5db2	0.24645117
24	0x3ea36c00	0.31918335
25	0x3eb5161a	0.35368425
26	0x3eb6cf4c	0.3570503
27	0x3eecc9f2	0.46247822
28	0x3f457c79	0.77143055
29	0x3fa3615e	1.2764089
30	0x3f398d86	0.7248157
31	0x3f301453	0.6878101
32	0x3cb8e64a	0.022570748
33	0x3f0eea0e	0.5582589
34	0xbb7305e1	-0.0037082362
35	0xbe48389e	-0.19552848
36	0xbe93fd6f	-0.28904292
37	0x3c557b76	0.013029924
38	0x3d805f73	0.062682055
39	0xbe2e39ab	-0.17014186
40	0xbe521d0c	-0.20518893
41	0xbe913ee4	-0.28368294
42	0x3e94c666	0.29057616
43	0xbe21a2d8	-0.15784776
44	0xbd48b809	-0.049003635
45	0x3e14ee0e	0.14543936
46	0x3f416e23	0.7555868
47	0xbf431f65	-0.7621978
48	0x3c6e7d50	0.014556244
49	0x3f577b56	0.8417257
50	0xbef382b6	-0.47560662
51	0xbda7169c	-0.08158609
52	0x3f030fcc	0.5119598
53	0x3e31c7a0	0.17361307
54	0xbe0f76b1	-0.14010121
55	0xbe875b94	-0.26437056
56	0x3e1e5c08	0.15464795
57	0xbe148d45	-0.14507015
58	0x3e8c5f67	0.27416536
59	0xbe54e800	-0.20791626
60	0xbe964c7e	-0.29355234
61	0xbdcc948f	-0.09989273
62	0x3e09aaa3	0.13443999
63	0xbe9ab9f7	-0.30220005
64	0xbd11d537	-0.03560373
65	0x3e2eded8	0.17077196
66	0xbdf5adcf	-0.11996042
67	0xbe8278fa	-0.25482923
68	0xbdc62119	-0.096742816
69	0x3e35a418	0.17738378
70	0xbd6e83c8	-0.058231145
71	0xbd6afc1c	-0.057369336
72	0x3d4302cc	0.04761009
73	0xbf2ac6db	-0.6670968
74	0x3e3cd28a	0.1843969
75	0x3ec248e0	0.37946224
76	0x3f0b2e26	0.5436729
77	0x3f4d6d78	0.8024516
78	0x3eb382e5	0.35060802
79	0x3f903690	1.1266651
80	0x3c12e7fb	0.008966441
81	0x3f5628fe	0.836563
82	0xbf249bef	-0.64300436
83	0xbe959e91	-0.2922254
84	0x3f515c78	0.8178172
85	0xbeb93887	-0.3617594
86	0xbed470c1	-0.41492274
87	0x3f060fcc	0.52367854
88	0xbf6ac405	-0.9170535
89	0x3ee85258	0.45375323

conv1.bias f4 [10]
0	0xbc0799c0	-0.008276403
1	0x3e9326ce	0.28740543
2	0xbba4f9c4	-0.005034657
3	0xbb95bfd4	-0.004569987
4	0xbe6aedf1	-0.2294233
5	0xbe112d59	-0.14177455
6	0xbe1c706f	-0.15277265
7	0xbe22af00	-0.1588707
8	0xba5b43ec	-0.0008364308
9	0xbbb63a4f	-0.00556115

conv2.weight f4 [20, 10, 3, 3]
0	0x3e5a5dde	0.2132487
1	0x3d8a6436	0.06757395
2	0xbe1f81a4	-0.15576798
3	0x3cc3ca40	0.023900151
4	0xbe327635	-0.17427905
5	0xbe3c7de6	-0.18407401
6	0xbd2f4fcd	-0.042800713
7	0xbe1cca32	-0.15311506
8	0xbe42e8a7	-0.19034062
9	0xbde428e1	-0.111406095
10	0x3e2ad144	0.16681391
11	0x3dcde70b	0.100538336
12	0xbd8165ad	-0.06318221
13	0x3de7779c	0.113021106
14	0x3bb8a8d7	0.0056353617
15	0x3e34997e	0.17636678
16	0x3e479b63	0.19492869
17	0xbe12b0af	-0.14325212
18	0x3d81eb10	0.06343663
19	0xbe15d02e	-0.14630195
20	0x3c919bac	0.017774425
21	0xbc2bdea7	-0.010490096
22	0xbc8a5b69	-0.01688929
23	0x3cfe39ca	0.031033415
24	0xbecf48d3	-0.40485248
25	0x3e38b7a8	0.1803881
26	0x3e3098ed	0.17245837
27	0x3d03282e	0.03202074
28	0x3dc7604a	0.097351626
29	0xbce2fb32	-0.02770767
30	0xbe5df6a8	-0.21676123
31	0xbdae23a7	-0.08502894
32	0x3e9b6b09	0.303551
33	0xbf2d11f1	-0.676055
34	0x3e941327	0.28920862
35	0x3ea7be5c	0.3276242
36	0x3d536312	0.051608153
37	0xbdb295bc	-0.08719966
38	0x3d0998b5	0.0335929
39	0x3d179452	0.037006684
40	0xbc5a9ed4	-0.013343532
41	0x3d411c71	0.047146264
42	0x3ce79d02	0.02827311
43	0x3c00e0b5	0.007866074
44	0x3dbc34fa	0.09189792
45	0x3e0a70fb	0.13519661
46	0xbd115586	-0.035481952
47	0x3bde0430	0.0067754015
48	0x3e0bc207	0.13648234
49	0x3d1e2a32	0.03861446
50	0x3c5bebb8	0.013422899
51	0xbdd2e15f	-0.102968924
52	0xbcefa3c1	-0.029252889
53	0x3d0f7d4e	0.03503161
54	0xbc1c84d2	-0.009553151
55	0x3c07de3e	0.008292733
56	0x3d657d58	0.05602774
57	0x3cc9c0e8	0.024628118
58	0x3d59d1ed	0.053178716
59	0x3d6a7aa5	0.05724587
60	0x3d927016	0.07150285
61	0xbd720e89	-0.059095893
62	0xbcd92122	-0.026505057
63	0x3dd76544	0.10517362
64	0x3dada8c9	0.08479459
65	0xbd013870	-0.031547964
66	0xbd0c1f28	-0.0342094
67	0x3d997011	0.07492078
68	0xbd808fa2	-0.06277396
69	0xbdd1bdda	-0.102412894
70	0x3ce7992a	0.028271277
71	0xbdba9911	-0.09111226
72	0x3de55c00	0.11199188
73	0xbe120e07	-0.14263164
74	0x3d155f52	0.036467858
75	0xbece9bad	-0.40353146
76	0x3db1a8a9	0.086747475
77	0x3e870bda	0.2637623
78	0xbe85cc2f	-0.26132342
79	0x3e1accef	0.15117238
80	0x3df550f3	0.119783305
81	0xbcfcdf8d	-0.030868316
82	0x3e487a04	0.19577795
83	0x3cd57b53	0.026059782
84	0x3c48fae3	0.012266847
85	0xbd18f129	-0.037339363
86	0xbd63ef80	-0.055648327
87	0x3d889769	0.06669504
88	0x3def3309	0.11679656
89	0xbe29f2f2	-0.16596583
90	0x3cdacc28	0.026708677
91	0xbce9065e	-0.028445419
92	0xbdbfe3bf	-0.09369611
93	0x3dd7f48a	0.10544689
94	0x3e0d61e9	0.13806881
95	0x3e665ff4	0.2249754
96	0x3e27c7ea	0.16384855
97	0xbc027159	-0.0079615945
98	0x3e0a8398	0.13526762
99	0xbc4d7cc8	-0.012541957
100	0x3a512a7c	0.0007979048
101	0xbd1237dc	-0.035697803
102	0x3d893661	0.06699825
103	0xbc068aec	-0.0082118325
104	0x3d834f77	0.06411641
105	0xbd922e8d	-0.07137785
106	0xbd82faf6	-0.06395523
107	0xbde01310	-0.10941136
108	0x3dafbc49	0.085808344
109	0xbe17b9f0	-0.14817023
110	0x3d432ca7	0.047650006
111	0xbd8a36f4	-0.06748763
112	0xbe5a261a	-0.21303597
113	0x3d618417	0.05505761
114	0x3c4ebbd5	0.012618025
115	0x3e4e17d2	0.20126274
116	0x3d7fa9d4	0.06241782
117	0x3d80d715	0.06291024
118	0xbde17099	-0.110078044
119	0x3dc4cfa8	0.0960992
120	0xbe2d439a	-0.16920319
121	0xbd919ccf	-0.07109987
122	0x3c3a74ba	0.011380369
123	0x3df5f5f1	0.120098
124	0x3e9025e0	0.28153896
125	0x3d9493b2	0.07254733
126	0xbd758382	-0.05993987
127	0xbd2dbcad	-0.042416263
128	0x3d53f405	0.051746387
129	0x3ced75c5	0.028986821
130	0xbd9323aa	-0.07184537
131	0xbd39c102	-0.045350082
132	0x3dcb5884	0.099289924
133	0x3c206b36	0.009791186
134	0xbd8e63eb	-0.069526516
135	0x3e14d17c	0.14533037
136	0xbe1df40a	-0.15425125
137	0xbc856026	-0.016281199
138	0x3d2fb006	0.04289248
139	0x3d3afca5	0.045651097
140	0xbc027842	-0.007963242
141	0xbcf68fac	-0.030097805
142	0xbd7f7b39	-0.062373374
143	0xbe04797e	-0.1293697
144	0xbdcc8441	-0.09986163
145	0x39ccba81	0.00039048868
146	0x3b1ed0f8	0.0024233442
147	0xbbfc0cb0	-0.007691942
148	0xbd7f41c9	-0.062318597
149	0xbd17f922	-0.037102826
150	0xbd975330	-0.07388914
151	0xbda83fb0	-0.082152724
152	0x3b51dc9b	0.003202236
153	0x3d45af05	0.048262615
154	0x3d319e5e	0.04336392
155	0xbd9ec8a1	-0.07753111
156	0xbd9d725e	-0.076878294
157	0xbda2cd52	-0.07949318
158	0xbdd3a39d	-0.10333941
159	0x3d1a91be	0.037736647
160	0xbd363628	-0.04448524
161	0xbd571d73	-0.05251832
162	0xbc5159d4	-0.012777764
163	0xbe7ea484	-0.24867445
164	0xbe0464d9	-0.12929095
165	0xbddba9c0	-0.107257366
166	0x3e095348	0.13410676
167	0x3ddc9d2b	0.10772165
168	0xbd97d511	-0.07413686
169	0x3d591050	0.052994072
170	0xbb02a1af	-0.0019932797
171	0xbc322e09	-0.010875233
172	0x3e1461ac	0.14490384
173	0x3d85b900	0.065294266
174	0x3e078a48	0.13236344
175	0x3e0ea26d	0.13929148
176	0x3dc51358	0.0962283
177	0xbce1a1f8	-0.027543053
178	0xbe0c02ff	-0.13673018
179	0xbd8c7152	-0.06857552
180	0x3cdce4b1	0.026964517
181	0x3d25b6e6	0.04045763
182	0xbbafb95a	-0.005362672
183	0x3db31509	0.087442465
184	0x3cb4bd7a	0.022063006
185	0xba5306e8	-0.00080500403
186	0x3b8a9a7a	0.004229841
187	0x3bda7592	0.0066668475
188	0x3d865032	0.06558265
189	0xbd46b75b	-0.048514705
190	0x3db0b745	0.08628706
191	0x3da66a0b	0.08125695
192	0x3dbbebc9	0.09175832
193	0xbd108591	-0.03528363
194	0x3d2fb7fd	0.042900074
195	0x3ccb3b0b	0.024808427
196	0x3cb2cfbe	0.021827575
197	0xbdc7a93b	-0.09749075
198	0xbdd66d83	-0.104701065
199	0xbd369137	-0.04457208
200	0xbd816250	-0.0631758
201	0x3db7b2ea	0.08969672
202	0x3c355ff1	0.0110702375
203	0xbd99b7a3	-0.07505729
204	0x3da23aa9	0.07921345
205	0x3c1fd7ce	0.009756042
206	0xbd938ca9	-0.07204563
207	0xbd7c8c3c	-0.061657175
208	0x3d59dc32	0.05318851
209	0xbdfa0a19	-0.12208957
210	0x3db11c67	0.086479954
211	0xbcb1b0a0	-0.021690667
212	0x3be81857	0.0070829797
213	0xbdc9b5b2	-0.09849109
214	0xbd9f02e4	-0.07764223
215	0xbdbe551b	-0.09293576
216	0x3dc6c37f	0.09705257
217	0xbd8f0461	-0.06983257
218	0x3d961ec9	0.073300906
219	0xbdc71c1f	-0.097221605
220	0xbdbfe0a8	-0.09369022
221	0xbdb44ae2	-0.08803345
222	0x3d144608	0.0361996
223	0x3d975878	0.07389921
224	0x3dd5f351	0.104467995
225	0xbd27a3b6	-0.04092761
226	0xbcff168c	-0.03113868
227	0xbdb83a3d	-0.08995483
228	0xbdc7d488	-0.09757334
229	0xbdc4a056	-0.09600894
230	0xbd5f1ffb	-0.05447386
231	0xbdb6dab7	-0.08928435
232	0xbd912a9e	-0.07088207
233	0xbb8ca34d	-0.004291928
234	0xbdcfa3c8	-0.10138661
235	0x3dc4df2b	0.096128784
236	0x3cbdbe10	0.023161918
237	0x3c8af594	0.016962804
238	0xbd96079c	-0.0732567
239	0xbd2d2fb4	-0.04228182
240	0x39aa0ed3	0.00032435972
241	0xbd958795	-0.07301251
242	0xbcb24419	-0.021760987
243	0x3d84083f	0.06446885
244	0x3d609f3a	0.05483935
245	0xbd62d17c	-0.05537556
246	0xbdba8510	-0.09107411
247	0xbdd073e7	-0.101783566
248	0x3d287c7f	0.041134354
249	0xbb83b996	-0.0040199263
250	0xbd26517e	-0.04060506
251	0xbda54b13	-0.0807096
252	0xbda4f881	-0.08055211
253	0xbdc6093f	-0.09669732
254	0x3d59c06b	0.05316202
255	0x3d040e39	0.032240126

conv2.bias f4 [20]
0	0xbe069390	-0.13142228
1	0xbe637843	-0.22213845
2	0x3daedeaf	0.08538567
3	0x3de6fd5c	0.11278793
4	0x3f2af10b	0.6677405
5	0xbd150309	-0.036379848
6	0xbd8f2cd1	-0.0699097
7	0xbe0e4f6c	-0.13897485
8	0xbea79b76	-0.32735795
9	0xbdc29152	-0.09500374
10	0xbe6710c0	-0.22564983
11	0xbe5c3665	-0.21505125
12	0xbe81b116	-0.25330418
13	0x3d50a7c8	0.05094126
14	0x3d55a608	0.052160293
15	0xbd1b8c5e	-0.03797566
16	0xbd06a425	-0.032871384
17	0xbdc420dd	-0.09576581
18	0x3e9280b0	0.28613806
19	0xbe03f0d0	-0.12884831

fc1.weight f4 [50, 500]
0	0x3c62c305	0.013840442
1	0x3e013f0d	0.12621708
2	0x3d0407b3	0.032233905
3	0x3cf8bb2f	0.030362694
4	0xbd9eaf12	-0.07748236
5	0xbd7e7fe2	-0.062133677
6	0x3d4c71c1	0.04991317
7	0x3d96308f	0.073334806
8	0x3d867f4f	0.06567251
9	0xbd2a745b	-0.04161487
10	0xbdac3e53	-0.08410325
11	0x3dcfd5ba	0.10148187
12	0x3cc0a10c	0.023514293
13	0x3d3d0f20	0.046157002
14	0xbd9d4408	-0.076789916
15	0xbe2f5336	-0.17121586
16	0x3c847b02	0.016171936
17	0x3d694087	0.056946304
18	0x39b34855	0.00034195432
19	0xbc535671	-0.012899027
20	0xbd8c8682	-0.06861593
21	0x3d553588	0.052053005
22	0xbc8fe1d8	-0.017563745
23	0x3dc9393b	0.09825369
24	0x3e6ebcda	0.23314229
25	0xbbe43705	-0.0069645667
26	0xbc12e46e	-0.008965595
27	0x3bc9221f	0.0061381008
28	0xbcbf04c7	-0.023317708
29	0xbc57de99	-0.01317563
30	0xbd060dd0	-0.032728016
31	0xbcf47264	-0.029839702
32	0xbcf4541e	-0.029825266
33	0xbd176420	-0.03696072
34	0x3c787fb1	0.015167163
35	0x3d9326d1	0.07185138
36	0xbd329672	-0.043600507
37	0xbcbab4a0	-0.022791207
38	0xbd291cc0	-0.041287184
39	0xbca1b28f	-0.019738464
40	0xbd0be4b1	-0.034153644
41	0xbcbf35e3	-0.023341125
42	0x3c0ef79e	0.008726029
43	0x3d1d5465	0.038410563
44	0xbcd05b02	-0.02543402
45	0x3d64506c	0.05574076
46	0x3d165bdb	0.036708694
47	0xbcf12b5c	-0.02943962
48	0xbccbaf59	-0.024863886
49	0x3bd82f92	0.0065974677
50	0x3c28a8b5	0.010294129
51	0x3b831d2a	0.0040012794
52	0xbccab0b4	-0.024742462
53	0xbbe06e10	-0.006849058
54	0x3ce5b69a	0.028041173
55	0xbbc1ed90	-0.0059182122
56	0x3c0bd1ad	0.008533877
57	0x396f2932	0.00022808163
58	0x3d035e45	0.032072324
59	0xb9cc0189	-0.00038911056
60	0xbc892394	-0.016740598
61	0x3c51148e	0.012761248
62	0x3c1ee370	0.00969778
63	0x3cc0252e	0.023455229
64	0x3b1d8415	0.0024035026
65	0x3cfed865	0.031109044
66	0xbd2cc66e	-0.042181425
67	0xbb478409	-0.003044369
68	0x3cf4c6c4	0.029879935
69	0xbc442722	-0.011972221
70	0x3d30d3d5	0.04317077
71	0x3cd1a7c6	0.025592696
72	0xbd2cbf67	-0.042174723
73	0x3c80469d	0.015658671
74	0xbad14dc5	-0.0015968612
75	0x3daf5c36	0.0856251
76	0x3d8c3c55	0.06847445
77	0xbbfa71eb	-0.0076429746
78	0xbcbc0a9d	-0.02295428
79	0x3d7b55b8	0.061361045
80	0x3d619bd1	0.05508024
81	0x36ba9f90	5.5618075e-06
82	0xbc46dc60	-0.012137502
83	0x3d696d17	0.0569888
84	0xbcac99ad	-0.021069372
85	0x3d63a2b7	0.0555751
86	0x3cc3e882	0.02391458
87	0xbdc5470a	-0.0963269
88	0xbc884393	-0.016633784
89	0xbdc8bd14	-0.09801689
90	0xbd9869d6	-0.074420616
91	0xbda9a7a4	-0.08283928
92	0xbdc24608	-0.09486014
93	0x3c172ada	0.009226525
94	0xbde71114	-0.11282554
95	0x3d6743da	0.056461193
96	0xbe153612	-0.14571407
97	0x3c20b0ad	0.009807748
98	0xbd7990f1	-0.060929243
99	0xbe14731c	-0.14497036
100	0x3d8a11d4	0.06741682
101	0x3d27b938	0.040948123
102	0xbc2b40c5	-0.010452454
103	0xbd7b72f8	-0.06138894
104	0x3d823fe1	0.0635984
105	0x3d912b49	0.07088334
106	0xbcc067a1	-0.023486914
107	0xbd90802f	-0.07055699
108	0x3c9ba291	0.018998416
109	0x3cbd0f88	0.023078695
110	0x3dc8b4a5	0.0980008
111	0x3d75af12	0.059981413
112	0x3cabe015	0.020980874
113	0xbd2aedeb	-0.041730803
114	0xbdb76bd3	-0.08956113
115	0x3cfe17df	0.031017242
116	0x3d629872	0.055321164
117	0x3d81cd66	0.06338005
118	0xbbed2477	-0.007237013
119	0xbce4c5f0	-0.027926415
120	0xbdbf2790	-0.09333718
121	0x3c8da9a8	0.017292812
122	0xbd918a73	-0.07106485
123	0xbbc92b81	-0.0061392193
124	0xbd0b3850	-0.03398925
125	0x3c04e9c7	0.0081123775
126	0xbb06490a	-0.0020490312
127	0x3d0aac06	0.03385546
128	0xbcd6d38c	-0.02622392
129	0xbc9c5651	-0.019084128
130	0xbc73f269	-0.014889338
131	0xbcc60c0a	-0.024175663
132	0x3c7199c2	0.014746131
133	0xbd450220	-0.04809773
134	0xbcd0b3d5	-0.025476376
135	0x3c992db5	0.018698553
136	0xba37cf18	-0.00070117554
137	0x3d0ff298	0.035143465
138	0xbc38c97d	-0.011278507
139	0xbd098152	-0.033570595
140	0x3d2b3b58	0.04180464
141	0xbc281857	-0.010259709
142	0xbd397856	-0.045280777
143	0xbd1f83d4	-0.03894408
144	0xb9918809	-0.0002775791
145	0x3c8f3e19	0.017485665
146	0x3caccee9	0.021094756
147	0x3a68bae5	0.0008877947
148	0xbc532dbf	-0.012889325
149	0x3b0293e2	0.001992457
150	0xbc8c0014	-0.017089881
151	0xbd04b92c	-0.032403156
152	0xbcf217ab	-0.029552301
153	0xbc4ef3d1	-0.012631373
154	0x3d2fbfbd	0.042907465
155	0xbc86dffc	-0.016464226
156	0x3cb015c4	0.021494754
157	0xbc8cb0e3	-0.01717419
158	0x3cc3fa42	0.023923043
159	0x3b185911	0.0023246447
160	0x3d48a0dc	0.048981532
161	0xbd1416e7	-0.036154654
162	0x3a6354d6	0.00086720043
163	0xbd0eb5f8	-0.034841508
164	0x3ccf6e4d	0.02532115
165	0xbcda66c9	-0.02666034
166	0xbdac729c	-0.084202975
167	0xbd33f17e	-0.043931477
168	0x3cf7b1e2	0.030236188
169	0xbd0006a7	-0.031256344
170	0x3b2b8363	0.0026170842
171	0xbc9a8c78	-0.018865809
172	0x3b489283	0.0030604906
173	0xbc6dece8	-0.014521815
174	0xbd265d54	-0.04061635
175	0x3bc7776b	0.006087234
176	0x3c298288	0.0103460625
177	0xbd22fee8	-0.03979388
178	0x3ce841dd	0.028351719
179	0xbd926aad	-0.07149253
180	0x3ce5d948	0.02805771
181	0x3a3e8d5d	0.00072689896
182	0xbd7c10b5	-0.06153937
183	0xbd9803e6	-0.074226186
184	0x3d32dbe9	0.043666754
185	0x3d22a1ba	0.039705016
186	0xbc40d6c5	-0.011769955
187	0xbcf323a3	-0.029680079
188	0xbd5aa5fc	-0.05338095
189	0x3cfc0cc3	0.030767804
190	0x3cd87f99	0.02642803
191	0xbc1bb94d	-0.009504628
192	0x3c70bf5c	0.014694061
193	0xbc46079a	-0.012086773
194	0xbd2d213d	-0.042268027
195	0xbc7aea0c	-0.01531459
196	0xbd37fef9	-0.044920895
197	0x3cf98fda	0.030464102
198	0x3ab15f20	0.0013532378
199	0x3cc9d7fc	0.024639122
200	0xbd533c3b	-0.051571112
201	0x3daf5354	0.085608155
202	0x3ac03c84	0.0014666473
203	0xbc800d63	-0.015631383
204	0xbcfeb0c3	-0.031090146
205	0xbd24ca1b	-0.040231805
206	0xbb70a9cf	-0.0036722308
207	0x3ceb2959	0.02870624
208	0xbae68816	-0.0017588164
209	0x3c77bddb	0.015120949
210	0xbd39e027	-0.045379784
211	0x3d1f4f67	0.038894083
212	0xbd3bb9a0	-0.045831323
213	0xbd4492cb	-0.047991555
214	0xbd522cd2	-0.051312275
215	0x3cc911a7	0.02454455
216	0xbd45fd89	-0.048337493
217	0xbd912734	-0.070875555
218	0xbd328420	-0.043583035
219	0x3b858481	0.0040746336
220	0x3ca47108	0.020073429
221	0xbd50cc32	-0.050975986
222	0xbe2d7310	-0.16938424
223	0x3c5bd683	0.013417843
224	0x3ddfb898	0.1092388
225	0xbcea9552	-0.028635655
226	0x3cb84832	0.022495363
227	0xbc4ae2ad	-0.012383145
228	0x3c39caad	0.011339826
229	0xbddae582	-0.106883064
230	0x3d2bc702	0.041937836
231	0xbc0292cc	-0.007969569
232	0x3da34311	0.07971776
233	0x3d986887	0.07441812
234	0xbe4777d2	-0.19479302
235	0x3cf0c5aa	0.029391129
236	0xbcb39778	-0.021922812
237	0x3d8c2808	0.06843573
238	0x3dbee1c5	0.09320406
239	0xbd3895e9	-0.04506484
240	0xbd084f9e	-0.033279054
241	0xbc8b5192	-0.01700667
242	0x3c2fc3c4	0.0107278265
243	0xbdb3c74b	-0.087782465
244	0x3d426687	0.04746106
245	0xbd82af1d	-0.063810565
246	0xbdd3973d	-0.10331581
247	0x3d7b526d	0.061357904
248	0x3c71fb4c	0.0147693865
249	0x3dca40ea	0.098756626
250	0xbd831954	-0.06401315
251	0x3dfe7753	0.12425103
252	0x3e02aecb	0.1276199
253	0xbc1c4d3a	-0.009539897
254	0xbbf7d4b4	-0.007563198
255	0xbcb8e3d2	-0.02256957

fc1.bias f4 [50]
0	0x3d4fe9da	0.050760128
1	0x3c3039e1	0.010755987
2	0x3c497655	0.012296279
3	0x3c80249a	0.015642453
4	0xbd24f24d	-0.04027014
5	0xbc95b5a4	-0.01827509
6	0x3d3ae18e	0.045625262
7	0xbd5f0d45	-0.054456014
8	0x3cbc0b3a	0.022954572
9	0x3e99e6fb	0.30059037
10	0xbd773ced	-0.060360838
11	0x3c63d6d1	0.013906197
12	0x3d4d79ea	0.050165094
13	0x3dd68b53	0.10475793
14	0xbd5b46d3	-0.05353434
15	0x3db3162f	0.087444656
16	0x3e96b6c0	0.29436302
17	0x3d6ad774	0.05733438
18	0xbc000344	-0.007813279
19	0x3a8bfca1	0.0010680148
20	0xbcdd0b6c	-0.026982985
21	0x3d84fb8a	0.0649329
22	0x3df6bc81	0.12047673
23	0x3d07f41a	0.033191778
24	0x3c9f31b9	0.01943289
25	0x3da05fe7	0.07830792
26	0xbc125c33	-0.008933115
27	0x3dabf4c7	0.08396297
28	0x3d94990c	0.07255754
29	0xbdaebdc0	-0.08532286
30	0x3d1d8880	0.038460255
31	0xbd4c8399	-0.04993019
32	0x3d65c58d	0.056096602
33	0x3cc4670e	0.023974922
34	0x3c2c9d46	0.010535544
35	0x3d8a05a5	0.06739358
36	0xbb785d85	-0.003789754
37	0xbb1919d4	-0.0023361342
38	0x3e42beec	0.19018143
39	0x3e12253f	0.14272021
40	0x3daff177	0.08590978
41	0xbd9ae824	-0.075638086
42	0x3c65b984	0.014021281
43	0x3df82a8e	0.12117492
44	0x3d4db8bd	0.05022501
45	0xbdf0406a	-0.11731036
46	0x3d8d8cda	0.06911631
47	0x3e12e33b	0.14344494
48	0x3df355b8	0.11881584
49	0x3d5e909b	0.054337125

fc2.weight f4 [10, 50]
0	0xbc6a31f0	-0.014294133
1	0x3cf0edb7	0.029410226
2	0x3e44c0dc	0.19214195
3	0xbd28246e	-0.041050367
4	0xbd0d8b8c	-0.03455691
5	0xbdd2ef7d	-0.10299585
6	0x3ed19c6d	0.40939656
7	0x3a11362d	0.0005539384
8	0xbe2d69ce	-0.16934893
9	0x3ea7cb06	0.32772082
10	0xbcd2b78c	-0.025722288
11	0x3d5df61b	0.054189783
12	0x3d5863b2	0.05282945
13	0xbd556d1e	-0.052106015
14	0xbd340ce1	-0.043957595
15	0x3df43d70	0.11925781
16	0x3e87a02a	0.26489383
17	0xbb84c3e0	-0.0040516704
18	0x3e68f0dd	0.22748132
19	0x3ea4c107	0.32178518
20	0x3eb4aea6	0.35289496
21	0x3e8713ad	0.263822
22	0xbe65021b	-0.22364084
23	0xbe059c1f	-0.13047837
24	0x3ec74a16	0.3892371
25	0xbdf6a00e	-0.12042247
26	0xbd8c9d41	-0.06865931
27	0xbe152237	-0.14563833
28	0x3ec53638	0.38517928
29	0xbbf4a49f	-0.0074659134
30	0xbe96afbe	-0.29430956
31	0xbdc6edd8	-0.09713334
32	0x3dc7a140	0.09747553
33	0xbcf1f734	-0.029536821
34	0x3e902ae2	0.28157717
35	0x3ea42602	0.32060248
36	0x3d871b69	0.06597025
37	0x3dcbdf35	0.09954683
38	0x3edfcdd8	0.43711734
39	0x3e9070ec	0.28211153
40	0x3ebc0d7c	0.36729038
41	0xbd842a67	-0.064534
42	0xbbde5723	-0.00678529
43	0xbe69aac7	-0.22819053
44	0x3e69ed73	0.22844486
45	0xbe972466	-0.29519957
46	0x3eddc649	0.43315342
47	0xbe73bb86	-0.23802003
48	0xbeaeec14	-0.34164488
49	0xbdd6be40	-0.10485506
50	0x3e81ba9c	0.25337684
51	0x3dd3266a	0.10310061
52	0x3ef7a929	0.48371246
53	0x3da1828d	0.07886229
54	0xbc5bcc89	-0.013415464
55	0x3ece9155	0.40345255
56	0xbec6b7c4	-0.38812077
57	0xbea6130f	-0.32436416
58	0x3ee1b5aa	0.4408391
59	0xbebbcf0c	-0.36681402
60	0xbd8f8f00	-0.07009697
61	0x3d12a858	0.035805076
62	0xbd8b3a37	-0.06798213
63	0x3e4c5dc7	0.19957648
64	0x3eaa8033	0.33300933
65	0x3cfbfca1	0.030760111
66	0xbead2437	-0.33816692
67	0xbe66749f	-0.22505425
68	0xbe2ed3bd	-0.17072959
69	0xbdc2e694	-0.095166355
70	0x3e964d42	0.29355818
71	0x3c3be484	0.011468057
72	0x3ecc9b3d	0.39962187
73	0x3d50d158	0.050980896
74	0xbe7ff33c	-0.2499513
75	0x3eb22738	0.34795547
76	0xbe043f4a	-0.12914768
77	0xbef43c4d	-0.47702256
78	0xbe5f3d53	-0.21800737
79	0xbeaf70ea	-0.34265834
80	0xbe993628	-0.2992413
81	0xbd2196bc	-0.039450392
82	0xbd51b1e3	-0.051195037
83	0xbe9abe07	-0.30223104
84	0x3e87de46	0.2653677
85	0xbed00bca	-0.40633994
86	0x3e8a9c45	0.2707235
87	0xbdd1f598	-0.102519214
88	0xbe6b99b5	-0.23007853
89	0xbe1fcd08	-0.15605557
90	0x3e953700	0.29143524
91	0xbee13d6d	-0.43992177
92	0xbd694174	-0.056947187
93	0xbeb26078	-0.34839225
94	0x3e2c4c7b	0.1682605
95	0x3e9444f5	0.2895886
96	0x3ef94261	0.48683456
97	0xbeac1685	-0.3361093
98	0xbe4636ed	-0.1935689
99	0x3e51cfd0	0.2048943
100	0xbcf8636b	-0.030320844
101	0x3dcf9d2d	0.10137401
102	0x3dcbfe3e	0.09960602
103	0x3ec74a67	0.38923952
104	0xbde9e73a	-0.11421056
105	0xbe1aef85	-0.15130432
106	0xbdf7df9a	-0.121031955
107	0x3e903a25	0.2816936
108	0x3ea58982	0.32331473
109	0x3eb3bdde	0.35105795
110	0x3e7a3368	0.24433672
111	0xbeb778a6	-0.35834235
112	0x3e07948a	0.13240257
113	0x3e450c10	0.19242883
114	0x3c6ba911	0.01438357
115	0x3e96c2a0	0.29445362
116	0x3ec3de74	0.38255656
117	0xbd9ceb98	-0.076621234
118	0xbe2f8b0b	-0.17142884
119	0x3eb505fc	0.35356128
120	0xbe73b87b	-0.23800842
121	0x3e756eb5	0.23968013
122	0xbe67d30c	-0.22639102
123	0xb9b16b9e	-0.00033840252
124	0xbe3a1f79	-0.18176068
125	0xbe44bbba	-0.19212237
126	0x3c2d9dc0	0.010596693
127	0x3e25f8b2	0.16208151
128	0x3ec95f1c	0.39330375
129	0x3c0d742d	0.0086336555
130	0xbee05206	-0.4381258
131	0x3ee0d396	0.43911427
132	0xbe3ff2fa	-0.18745032
133	0xbea52526	-0.32254905
134	0xbe39089e	-0.18069693
135	0x3ea47288	0.3211863
136	0xbe964e27	-0.293565
137	0x3c4bd79c	0.012441542
138	0x3ebd66c2	0.3699246
139	0x3e9be6b9	0.30449465
140	0xbe04cb5d	-0.12968202
141	0xbdabf287	-0.08395868
142	0xbe519c27	-0.20469724
143	0xbdb4ee75	-0.088345446
144	0x3eb0d9a2	0.3454104
145	0xbd4390e7	-0.04774561
146	0xbe7b6d34	-0.24553376
147	0xbea3c6e6	-0.31987685
148	0x3e9a9ed6	0.30199307
149	0xbe3f3924	-0.18674141
150	0x3e5b2b17	0.21403156
151	0x3db21787	0.08695894
152	0xbeb12eb6	-0.3460595
153	0x3eae085c	0.33990753
154	0xbdd97d8f	-0.106196515
155	0xbde58793	-0.11207499
156	0x3eaac672	0.33354527
157	0xbd2f96dc	-0.04286848
158	0x3e99ad87	0.30015203
159	0x3ea15f08	0.31517816
160	0xbd7de06f	-0.061981615
161	0xbed4c94e	-0.41559833
162	0x3f0c6fb1	0.5485793
163	0x3d6bb8a5	0.057549138
164	0x3eaa9a63	0.33320913
165	0xbd8b9912	-0.06816305
166	0xbe26309c	-0.1622948
167	0xbe0b9aa3	-0.13633208
168	0x3e9ad4c4	0.30240452
169	0xbe71d0b2	-0.23614767
170	0xbeae0911	-0.33991292
171	0xbe22fb5a	-0.15916196
172	0xbe7b5651	-0.24544646
173	0xbcb684b9	-0.022280084
174	0x3e3e1ca1	0.18565609
175	0x3e8bb294	0.27284682
176	0xbe0f661c	-0.14003795
177	0x3e307059	0.17230357
178	0x3ddfc785	0.10926727
179	0xbdf4e30b	-0.119573675
180	0x3e097e83	0.13427167
181	0xbe2b1a25	-0.16709192
182	0x3e69b3e2	0.22822526
183	0xbeb87bbd	-0.36031905
184	0x3e793918	0.24338186
185	0x3e32999b	0.17441408
186	0xbe22bb7b	-0.1589183
187	0xbe004d9a	-0.12529603
188	0x3dbbbe67	0.09167176
189	0xbe881ce3	-0.2658454
190	0x3ebaee8f	0.3651013
191	0xbe82602b	-0.25463995
192	0xbe152b77	-0.14567362
193	0x3ea17808	0.3153689
194	0x3ea7045d	0.32620516
195	0xbdc1aa67	-0.0945633
196	0x3e94e93b	0.2908419
197	0x3e4c1927	0.1993147
198	0xbe6ce59b	-0.23134463
199	0x3e49dcfc	0.19713205
200	0xbe954ffd	-0.2916259
201	0x3dd7f442	0.10544635
202	0xbe76997c	-0.24081987
203	0x3ed00023	0.40625104
204	0x3d990782	0.07472135
205	0x3e62ef11	0.22161509
206	0xbda3d6df	-0.07999968
207	0x3e83884a	0.25689918
208	0x3eaf041b	0.3418282
209	0xbd8b708c	-0.06808576
210	0xbe4abab0	-0.19797778
211	0xbeb70c9d	-0.3575181
212	0xbde34966	-0.11097984
213	0xbe2b499e	-0.16727301
214	0x3eae3a17	0.34028694
215	0xbd6f5f1a	-0.058440305
216	0xbd919c1f	-0.07109856
217	0xbe118827	-0.14212094
218	0x3e7eb655	0.24874242
219	0x3ed11060	0.40832806
220	0xbe789fa2	-0.24279645
221	0xbe9950eb	-0.29944548
222	0xbe009609	-0.12557234
223	0xbe10a08a	-0.14123741
224	0xbee8d881	-0.4547768
225	0xbd2ca299	-0.042147253
226	0xbddc706b	-0.107636295
227	0x3e8739a3	0.2641116
228	0x3ee14048	0.43994355
229	0x3eb9faea	0.36324245
230	0xbec9159a	-0.39274293
231	0x3edf761e	0.43644804
232	0xbe9771e4	-0.2957908
233	0xbe9d4373	-0.30715522
234	0x3e14f4f5	0.14546569
235	0x3e9d92ee	0.3077616
236	0x3d525d22	0.05135835
237	0xbe16cc09	-0.1472627
238	0xbe4efe22	-0.20214131
239	0xbd522f5f	-0.051314708
240	0xbdc909d4	-0.09816328
241	0x3e8dc973	0.27692756
242	0xbe46c01a	-0.19409218
243	0x3e3c003e	0.18359467
244	0x3e914b64	0.2837783
245	0x3e6381a9	0.2221743
246	0xbe8856b6	-0.26628655
247	0xbee96a7b	-0.4558905
248	0xbe681277	-0.22663294
249	0x3e14371f	0.14474152
250	0xbdfb0626	-0.12257032
251	0x3ce4f909	0.02795078
252	0xbdf9cccb	-0.12197264
253	0xbf2a2205	-0.6645816
254	0xbddc64cc	-0.10761413
255	0x3e799421	0.24372913

fc2.bias f4 [10]
0	0x3d8b53d7	0.068031006
1	0xbefc853a	-0.49320394
2	0x3e667b74	0.22508031
3	0x3e8ad2d1	0.27113965
4	0xbd7879a8	-0.060662895
5	0xbecf58d6	-0.40497464
6	0x3f047f41	0.51756674
7	0x3e4e36be	0.2013807
8	0xbd91d98e	-0.071215734
9	0xbebd2722	-0.36943918
